models/trained_model_rnn_smnist.pt (torch, 163343 bytes, 3 tensors)

output_linear.weight f4 [1, 200]
00000000: 4407 723d 236d a03b d281 713d c7cb cdbc
00000010: 3934 8cbd f87c 08bc 0b05 51bd ba76 5ebd
00000020: 10ec 483d 6123 413d 4014 81bd 044d 223d
00000030: 915d 1abd 84ba 30bd a016 2dbd aeab 73bc
00000040: 9acb b4bd 0589 a33d 3c80 5e3b 1954 5ab9
00000050: e82a fe3c 911a 433c 0a3f 333d f085 b93d
00000060: 0c9e 0cbd c8ca c53c d474 bc3d 6912 a8bb
00000070: 3e6a 9cbd cfa6 1bbd 40e5 f7ba bae5 4dbc
00000080: 10ae 15bd 5d67 8a3c 2ba3 c63c b375 863d
00000090: 04e6 a3bd d803 8a3d b667 193d 6092 093c
000000a0: 39e1 b8bc 8291 8d3c 1bf0 373d 3277 71bc
000000b0: e959 d93c bfc0 923c 90a4 d53c 0f21 7ebd
000000c0: ee8f 5fbb eb44 38bd db51 4dbc 42b2 753d
000000d0: a739 43bd d3cf 613d 556f 2d3d 9e6d 6e3d
000000e0: 3f8b 763b 1820 8a3c 85e8 eb3c 408f a83d
000000f0: 6698 343d 85f6 91bd dc70 6bbd 4272 55bc
00000100: 37ae 26bd c0e6 6ebd 34a2 57bd f1e2 9cbd
00000110: c697 683d 8de2 06bd 9466 483d 2cc7 abbc
00000120: dc97 533c 8701 aabd 57da 21bd ab94 7a3d
00000130: 099a bcbd c279 d03c 5f9d 6dbc 8fbd 88bc
00000140: 8371 49bb 4a12 aabd fe7a c6bd 5e98 af3a
00000150: 2355 06bd d7ce 2b3d bb6c 5bbd 26a6 08bd
00000160: 8152 d8bc 7831 87bd 58ab 613d d4bd 213d
00000170: f5d3 58bd a662 47bd e715 ec3c e747 2a3d
00000180: 90fb be3d 8994 743d 5f67 bdbc 2ade b7bd
00000190: 3a59 a2bc d1dd 1d3d 8970 833d ef7b b53c
000001a0: b445 a9bd 8444 133d 1ac8 78bc 9a6d 00bd
000001b0: a37d a53d 0df9 8fbc 2289 71bd 1f0b b4bd
000001c0: b632 cabc 0661 1d3d 6db5 80bd 86dc ec3c
000001d0: eba1 713b eabe 463d 32e4 0fbd 0a40 31bd
000001e0: a8da a73a 87d0 a03d bec5 d13c 7eb8 833a
000001f0: 23e0 35bd 8e8e 0dbd 85fe 9c3a 653d 593d
00000200: 869b 553d ca9b 81bd c4b2 a4bd af9d 653a
00000210: 89c8 2cbd 1cc3 8bbc a3c3 ef3c 6b6a 3cbd
00000220: 96ee 97bc 7e7d 38bd 25fa 813c 7431 bfbd
00000230: d402 3abd b133 4b3d 64d0 73bd 91d8 063c
00000240: 64c8 59bd c677 71bd 3ed3 973d 042d 343c
00000250: 23ba 363d de5f 8ebd e20d 95bd 083e 54bd
00000260: ea07 04bd 5caa 4f3d aed8 92bd c015 b4bd
00000270: 07b7 a4bd ccc0 8a3d 6226 10bc aabc 953d
00000280: f861 543d 6de7 84bd 5ecc 1bbd f8f4 7e3d
00000290: daf4 a5bd 8b3f b0bd 5fa5 61bc a43c a23d
000002a0: 4ceb 94bc 13f9 9dbb 66bd 4dbd 18c6 acbd
000002b0: 4c60 19bc 3ae3 05bd 8d16 9d3d 9a76 26bd
000002c0: 0f3c 053c 2334 833d 95e7 4f3d b999 2fbd
000002d0: 06e4 69bb 0ad8 9f3c 469b bcbd 38d1 b8bc
000002e0: 5288 db3b abeb a7bc f9b6 3dbd de9b 5ebd
000002f0: 6686 72bd cbeb 69bd 42b3 9ebd 8731 b43d
00000300: a4b2 81bd c7aa a2bd baf7 54bd 86d9 23bc
00000310: 8a1a 823d 398d a6bd a565 a1bc 4002 bf3d
0.05908896 0.0048958226 0.058961697 -0.025121583 -0.06845898 -0.008330576 -0.0510302 -0.054312445
0.04905325 0.04715288 -0.063026905 0.03962423 -0.037686888 -0.043146625 -0.042257905 -0.014872475
-0.088278964 0.07985119 0.0033950945 -0.00020821429 0.031026319 0.011908189 0.04376129 0.0905875
-0.034330413 0.024144545 0.09201971 -0.005129148 -0.076374516 -0.038000878 -0.0018912926 -0.012566978
-0.036542952 0.01689499 0.024247726 0.06565418 -0.080028564 0.067390144 0.037452422 0.008396715
-0.022568332 0.017281298 0.044906717 -0.014737891 0.02653213 0.017914174 0.026079446 -0.062043246
-0.0034112888 -0.0449876 -0.012531723 0.059984453 -0.047662403 0.055129837 0.042342503 0.058210008
0.0037619618 0.016861007 0.028797397 0.08230448 0.04409065 -0.07127098 -0.057480678 -0.0130277295
-0.040693488 -0.05832553 -0.052644923 -0.07660473 0.056785367 -0.0329309 0.04892595 -0.020968996
0.012914624 -0.083010726 -0.039514866 0.061176937 -0.092090674 0.025448684 -0.014502852 -0.016691951
-0.0030737824 -0.083042696 -0.09691428 0.0013396849 -0.032796036 0.041945305 -0.05357049 -0.033361576
-0.026406528 -0.06601232 0.055095047 0.039487675 -0.052936513 -0.048678063 0.028819038 0.041572478
0.093253255 0.059711967 -0.02312058 -0.08977921 -0.019817937 0.03854162 0.06417949 0.022153823
-0.08265248 0.035954013 -0.015184427 -0.031354524 0.08080604 -0.017574811 -0.05896867 -0.08791184
-0.024682384 0.038422607 -0.06284604 0.028913748 0.0036870192 0.048521914 -0.035129733 -0.043273963
0.0012806254 0.078522734 0.025606986 0.001004949 -0.044403207 -0.03455978 0.0011977708 0.053037066
0.05215027 -0.063285425 -0.08041909 0.00087591534 -0.042183433 -0.017060809 0.029268092 -0.045999926
-0.018546384 -0.045041554 0.015866349 -0.09335604 -0.045412853 0.049609844 -0.05952491 0.008230344
-0.053169623 -0.058952115 0.07413338 0.010997061 0.044611108 -0.06951879 -0.072780386 -0.05181697
-0.03223411 0.050699577 -0.071702346 -0.08793211 -0.08042722 0.06775054 -0.008798214 0.073113754
0.051851243 -0.064894535 -0.038036697 0.06224534 -0.08103342 -0.0860587 -0.013772338 0.079217225
-0.018178605 -0.0048209517 -0.050229453 -0.08436221 -0.009361338 -0.032687403 0.07670317 -0.04064045
0.008131995 0.06406429 0.050757963 -0.04287121 -0.003568889 0.019512195 -0.092093036 -0.0225607
0.0066996003 -0.020498117 -0.046317074 -0.054347865 -0.059210204 -0.057109635 -0.077490345 0.08798509
-0.06332901 -0.079427294 -0.051994063 -0.010000592 0.06352718 -0.08132405 -0.019701788 0.09326601

neuron_layer.weight_ih f4 [1, 200]
00000000: 000d 6c3d 9dc0 fcbd 8d9a 8bbd cde0 503e
00000010: e2e2 843d 7065 123d f81c b93c f97c ae3d
00000020: 4076 323d 3f71 913b 465f 783d bbbe 4dbc
00000030: b1b1 0bbe ca99 14bd 1406 e5bd 6cc5 7a3c
00000040: afd5 593d b410 81be 5a81 49bd 4db1 56bd
00000050: 16a3 06be 4718 453d 0afe d63c 10d1 cfbc
00000060: 6513 873d e658 88bc fc83 dc39 a82a fcbd
00000070: fa9f 1a3e aae7 fd3d bae2 09be e7fe 28bc
00000080: 3265 893d 2038 ffbd d164 213d 3cd7 443d
00000090: 40f7 bd3d 3b22 3e3d 2f15 8ebd 44e4 8f3c
000000a0: 4d70 a23c 0255 9e3c df69 5cbd 3141 9dbc
000000b0: 8402 9b3d 9edd a33c 98c8 dabd e866 123c
000000c0: 85d3 e4bc ee9b 4e3b 9d7c 553b 2799 0bbe
000000d0: 57c5 8abd 0a95 153d 76fe d93d 4911 033c
000000e0: ac24 103c 0a4d f03c d7aa 51bd 8c80 b73c
000000f0: eed6 353d 781f c0b8 ef03 b0bd 4f0e a4bd
00000100: f285 d83d 1b2b 003e 8648 583d 1404 033e
00000110: 5209 63bc 1641 ab3d c224 06be c992 95bb
00000120: 51f8 3b3d a52b 83bb 5ca3 443d 9a99 a7bc
00000130: 7b67 af3d 7f31 96bd 74c7 323d 5051 ab3d
00000140: eae5 79bd 45aa a03d c95c b23d 81ca a83d
00000150: 1846 8b3c 85ab 2ebd 4c60 033e c4ec 453d
00000160: f38d d43d c1c9 2abd f7f1 1fbd 544a 3bbe
00000170: e60b 9c3c 245a 223a f6d5 1fbe 1e39 273d
00000180: 3d19 fdbc 11e2 e7bc f586 883d fcac 413d
00000190: 5670 8dbb 36c3 b33c 11a4 adbd cde6 983d
000001a0: 6b73 d63c c4e5 b13d 9aa6 a83c e554 1bbc
000001b0: a83e 0ebe 6411 7cbd 3741 1c3c d4bb 6f3a
000001c0: 81fe c83d 0bfe d43d bc7e 9b3d c3ac 733d
000001d0: 1dc5 a8bd e561 d73d ecea 4b3e b979 a83d
000001e0: af4c eabd 8359 d6bd fb3d 103d 7feb 913d
000001f0: ea1d 85bd a7fb 053e 79d7 71bd 011b 023d
00000200: a768 c9bd d343 99bd 24a7 ee3b 6c90 993c
00000210: db19 ea3c 32e4 ee3a ac6c b63d a3c0 503d
00000220: f0dd e0bc 2e46 d63d 7faa c4bd 255e a33d
00000230: cca4 11be fcc0 fd3c cdbb 9abc b302 cb3c
00000240: ccf3 113d 9105 c63d 9f5f debb 4464 483d
00000250: a639 8e3d e54b 373e 5cec 123d d15c f23c
00000260: ad2a 97bd d483 5d3d 9c22 0ebe a47f dabb
00000270: 47f6 8f3c 3ea5 6ebd 6968 92bc b0a4 1f3d
00000280: b8ad ab3c 24e8 abbc 278f 4bbd cf32 033c
00000290: 292d 09bd 73cc 243c b44f f5bc 4778 cbbd
000002a0: fcd8 273d 8dde 2a3d 34ba 30bc 8cff 073d
000002b0: 8077 6cbd 61fa eb3d bac3 58bd 3df6 073e
000002c0: 154f e73d 0ca8 e6bd bb19 bb3d b675 2dbb
000002d0: ff3f 42bd 4edc 9abd be51 b03c 042a 28ba
000002e0: cbba bb3c 6f73 213d e5c8 e3bb 1726 7c3d
000002f0: b993 0fbd 112f bb3b 0d29 903d 52d6 9bbd
00000300: b941 163d d99a c6bd f338 503d 968b e13d
00000310: c940 18be 000b 3fbd 9561 00bd 9683 1f3c
0.057629585 -0.123414256 -0.068165876 0.20398255 0.06488587 0.03574127 0.022596821 0.085199304
0.043569803 0.004438549 0.060637735 -0.012557681 -0.13642003 -0.036279477 -0.111828 0.015305858
0.0531823 -0.25208056 -0.049195625 -0.05241518 -0.1314815 0.048118856 0.026244182 -0.025368243
0.06595496 -0.016643953 0.00042060006 -0.123128235 0.15100089 0.12397702 -0.13465396 -0.01031468
0.067087546 -0.12461877 0.039402787 0.048056826 0.09275675 0.046419363 -0.06937634 0.0175649
0.01982894 0.019327644 -0.053811904 -0.019196125 0.07568839 0.020003136 -0.106827915 0.008935668
-0.027932892 0.0031526047 0.0032575496 -0.13632642 -0.06775921 0.036519088 0.10644238 0.007999727
0.008797806 0.02933361 -0.051188316 0.022400163 0.044394426 -9.161135e-05 -0.085945 -0.08010542
0.10572423 0.12516443 0.05280354 0.12794524 -0.013857203 0.083620235 -0.1309996 -0.0045646173
0.04589111 -0.0040030056 0.048007354 -0.020458985 0.08564659 -0.073336594 0.043647245 0.083651185
-0.06101028 0.07844976 0.087091036 0.082417496 0.017001197 -0.042644043 0.12829703 0.0483215
0.10378637 -0.041696314 -0.039049115 -0.18290073 0.019048642 0.00061932416 -0.15608963 0.040825956
-0.030895824 -0.028306039 0.06666366 0.04728411 -0.00431637 0.02194367 -0.08478559 0.07465897
0.026178082 0.086864024 0.020587254 -0.00948069 -0.13891089 -0.061540022 0.009537033 0.0009145115
0.09814168 0.10400017 0.07592532 0.05949093 -0.082407214 0.10516719 0.19913834 0.08226342
-0.114404075 -0.10466292 0.03521536 0.071249954 -0.06499846 0.13084279 -0.05904338 0.031764034
-0.09834414 -0.074836396 0.0072831083 0.018745624 0.028576782 0.0018225966 0.08907446 0.050964963
-0.027449578 0.104626045 -0.09602832 0.07976941 -0.14223021 0.030975811 -0.018888379 0.02478156
0.035632893 0.096690305 -0.0067863013 0.048923746 0.06944589 0.17900045 0.03586994 0.029585274
-0.07381187 0.0540808 -0.1388039 -0.006668048 0.017573489 -0.058263056 -0.017872052 0.038975418
0.020956859 -0.020984717 -0.049697068 0.008007719 -0.033490334 0.01005851 -0.029945232 -0.099350505
0.040978417 0.041716147 -0.010786582 0.033202693 -0.05773115 0.11522365 -0.052921034 0.13277526
0.112943806 -0.11262521 0.09135767 -0.0026467866 -0.047424313 -0.07561551 0.021523353 -0.0006414952
0.022916218 0.039416727 -0.0069514387 0.061559763 -0.03505299 0.005712398 0.0703908 -0.07609238
0.03668377 -0.096975036 0.05083556 0.11012952 -0.14868464 -0.04664135 -0.03134306 0.009735962

neuron_layer.weight_hh f4 [200, 200]
00000000: b174 cbbc f77b 2d3d cad7 a53d 3f68 2dbc
00000010: 81f2 06bd bde9 3f3d 7f35 16bc 9fdb 2a3d
00000020: fbaa 41bb 916c ca3d b258 8cbd 8ce7 e3bb
00000030: ba62 4dbd c589 833d 9e1d f8bd 5fcf b8bd
00000040: 7f7e ae3c 0754 1b3c ebd7 7abd 1263 933c
00000050: 6c15 85bb 61b9 e63d 5424 8f3d 43d6 a43d
00000060: ad00 e3bc bcc0 a53b 2de4 d53d d9a2 d1bd
00000070: 405d 5fbd ec4d 493d 3475 90bd 40ea fdbd
00000080: 1251 0a3e 8181 fa3d 99b9 753b 20b2 8a3d
00000090: b5cf 4fbc b391 0dbd f640 bcbd 38fa 21be
000000a0: f7db 313d c985 a7bd 2752 023c 6526 ec3d
000000b0: 12e6 5b3d ea4c 0abb 7ed5 8b3d 0fed 09bc
000000c0: e68d a7bd 1e3b b1bd cbe2 f6bd 360c a7bc
000000d0: ef24 073d 75ce ec3b 154e 11bd aaef 1ebb
000000e0: 9938 c0bc c34b c73d 1143 bfbc 1808 963c
000000f0: 64e4 813d 99f8 543d 8447 4f3d 0a87 2bbd
00000100: 8922 163e e64e 7c3d bbce ed3c 9c1a 4dbd
00000110: a610 533c 1b32 46bd bf65 16bd 53b3 5f3d
00000120: f837 f8bc b834 f0bd 4d7c 213c 0d62 20bb
00000130: 92d7 f3bc 0732 e9bb 5f41 003e 4d02 c5bc
00000140: 9064 c4bc 27ae d6bc d585 253e 4b8b 5e3d
00000150: 6d0e f33d ca69 eebc 0d23 12bd ea6f a23d
00000160: eb5d 173e 63fc 993d 1b1f 7c3c 0f23 363d
00000170: 8cef c9bd c4ce 0c3e 0ea5 3ebd 8074 cd3d
00000180: 44af 18bc ce4f 0f3e e897 9e3c d2eb c83d
00000190: 2cc3 083d 533f dc3d de25 443d 0b65 fd3c
000001a0: 0682 96bd f89b 383d af76 6dbd 649d 2dbd
000001b0: 94ea 28bd 21d4 993d e564 1cbd 7a08 f0bc
000001c0: 66e7 2dbe a728 713d f0b3 e7bc 1472 d03d
000001d0: ef32 b0bc b9e2 2b3d 2cc5 2f3b 3c23 193d
000001e0: f9da e63d a411 bbbc 7652 613d fc50 b7bd
000001f0: 5110 04be d9f6 dd3d d2cd 9bbd 55ce 0cbc
00000200: 72bc a13c 57d3 7b3c d620 ce3d bc17 89bd
00000210: bbef e63d 3da1 bd3d 08a9 e1bb 7efa babd
00000220: c508 b4bd 0dd8 abb8 58a1 64bd 560d 16bd
00000230: 8cb4 ee3d 6c61 08bd ea4d 26bd cd04 593b
00000240: 4536 473d 880c d7bc ffaa 52bc 9244 d53d
00000250: 3714 80bd f18e 543c 2645 0d3c 8287 f4bd
00000260: f018 1a3e 876c 813c 3f5b 553c 8f28 e03c
00000270: ac42 a1bd c778 7dbd 90d0 16bd f815 9abd
00000280: 9a52 263c 1a4b 613d 1796 98bd 9160 0fbd
00000290: d89d 8f3d 4527 173d aa6d 38bd 0dc1 c9bd
000002a0: 9825 983d 6062 e4bb 281e 8bbd b9d9 6e3b
000002b0: 68f6 bdbd 981f 193c 80fe bc3c 1769 e9bd
000002c0: c37f 103d 1ee1 4ebd 9f8f 883d 70bf d3bd
000002d0: bfe4 ab3a c9f9 0fbc fb48 1fbd 013f c13b
000002e0: db52 d93d a214 43bc 4a8d 90bd 7b4b cebc
000002f0: 34ed 853d be63 153d c77e 9c3d 4e9b cebd
00000300: 70b2 1ebd 19ee e03d ad9f 9ebd 81a4 00bd
00000310: a2cb 0b3e cd09 ea3c c138 1d3c 0487 58bd
00000320: 3306 3a3d 028a cd3d 27aa e23d 2c15 8bbd
00000330: 255d 77bd 4d44 e5bb 5519 0bbe c1c4 babc
00000340: a1b5 b9bd c438 a83d 1879 6dbd 107c 4fbb
00000350: a807 6c3c 00b7 c9bd 37e4 cdbc 1193 0a3e
00000360: 7dce 06be b896 8e3c b799 4a3d bf4e cb3c
00000370: fd52 023d 864a cbbd 62c8 f33c 0312 233c
00000380: eacd f6bd 2f8b febc 221d 353c 9f65 c9bc
00000390: 9276 c43c 7a7a 8d3d 5d01 d03d 860f 893b
000003a0: 3402 093e 4c7f e9bc b8b9 ed3c 949b 9a3d
000003b0: 1cf6 bfbd c0a5 db36 9a5c 4d3d fca4 1b3d
000003c0: ff73 a0bd 3499 b63c 6f4b 1b3e 2c94 41bc
000003d0: dd2c 473c 9989 233d d931 bfbd d443 863c
000003e0: 2515 57bc 4d28 9b3d 6e06 b03d 4f83 2d3d
000003f0: 64ce 02be 7057 e9bd b366 623b 854c d03b
-0.024835916 0.04235455 0.08097799 -0.010583936 -0.032946113 0.04685377 -0.009168028 0.041713353
-0.0029551375 0.09883989 -0.06852855 -0.006955093 -0.05014298 0.06422762 -0.12115024 -0.09023928
0.021300552 0.009480483 -0.06124107 0.017991576 -0.0040613916 0.11265827 0.06989351 0.0804868
-0.027710283 0.005058376 0.10443912 -0.10236139 -0.05453229 0.049146578 -0.07053605 -0.12398195
0.13507488 0.12231732 0.0037494658 0.06772256 -0.012683799 -0.034562778 -0.09192078 -0.15818107
0.043422665 -0.08179814 0.007954157 0.11530761 0.05368621 -0.0021102973 0.0682783 -0.008418336
-0.08181362 -0.08653854 -0.12054976 -0.020391565 0.032994207 0.00722676 -0.035474855 -0.0024251738
-0.023464488 0.09731247 -0.02334741 0.018314406 0.0634239 0.051994894 0.050605312 -0.04187683
0.14661612 0.06159868 0.02902924 -0.050074205 0.012882387 -0.048387628 -0.036718126 0.054614376
-0.030300125 -0.11728805 0.009856296 -0.0024472505 -0.029765878 -0.0071165594 0.12524937 -0.024048949
-0.023973733 -0.02620609 0.16164334 0.05433206 0.11867986 -0.029103179 -0.03567796 0.07931502
0.1478192 0.07518842 0.0153882755 0.04446703 -0.09860143 0.1375075 -0.046544127 0.10031986
-0.00931913 0.13995287 0.019359544 0.09810604 0.033389255 0.10754266 0.047887675 0.03093197
-0.07349019 0.04507062 -0.057974514 -0.042386428 -0.041239336 0.075111635 -0.038182158 -0.029300917
-0.16982803 0.05887666 -0.028284043 0.10178009 -0.021508662 0.041964266 0.0026820404 0.037387118
0.112722345 -0.02283556 0.05501028 -0.089509934 -0.12896849 0.10838098 -0.076076165 -0.008594115
0.019743178 0.015370212 0.10064857 -0.0669398 0.11276194 0.092592694 -0.006886605 -0.09129809
-0.08790735 -8.194158e-05 -0.055817932 -0.036633812 0.1165553 -0.033296034 -0.04060165 0.0033114434
0.04863574 -0.026251093 -0.012858151 0.104134694 -0.06253856 0.012973533 0.008622443 -0.119399086
0.15048575 0.01579882 0.013022243 0.02736309 -0.07874045 -0.06188276 -0.036819994 -0.075237215
0.01015153 0.055003263 -0.07450502 -0.035004202 0.07012528 0.036902685 -0.04502646 -0.09851275
0.074290454 -0.006969735 -0.06792861 0.003644569 -0.09275514 0.009345911 0.023070574 -0.113969974
0.035278093 -0.050507657 0.066680185 -0.10339248 0.0013114436 -0.008787581 -0.03888796 0.005897403
0.106115066 -0.011906775 -0.07058199 -0.025182476 0.065393835 0.036472075 0.07641368 -0.10088216
-0.03874439 0.109829135 -0.077452995 -0.031406883 0.13651899 0.028569127 0.009596051 -0.052863136
0.04541607 0.100360885 0.1106761 -0.067911476 -0.060391564 -0.0069966675 -0.13583882 -0.022798898
-0.09067846 0.08213952 -0.057976812 -0.003165964 0.014406122 -0.098493576 -0.025133235 0.13532664
-0.13164707 0.017405853 0.049463 0.024817823 0.031817425 -0.099263236 0.029758636 0.009953025
-0.12050994 -0.031072227 0.011054309 -0.02458459 0.02398232 0.06908126 0.1015651 0.0041827587
0.13379747 -0.028503083 0.029019222 0.075492054 -0.093731135 6.5460044e-06 0.05013714 0.03799914
-0.078346245 0.02228985 0.15165494 -0.011815112 0.012156692 0.039926145 -0.093356796 0.016389765
-0.0131276 0.07576046 0.08594976 0.042361554 -0.12774044 -0.113936305 0.0034546077 0.006356778
